checkpoints/model.pt (torch, 4586 bytes, 9 tensors)

conv1.bias f4 [16]
-8.1897415e-05 -2.0855045e-05 -0.0017554312 3.2955315e-05 -3.897873e-05 0.0003177675 0.00044082367 -0.0009515807
3.8960206e-05 -0.00012789127 5.365975e-06 -3.394211e-05 5.9532205e-05 0.0005820316 8.5512125e-05 3.6016827e-05
00000000: 57c0 abb8 def1 aeb7 7f16 e6ba 8039 0a38
00000010: 187d 23b8 089a a639 5a1e e739 8073 79ba
00000020: 3469 2338 8d1a 06b9 600d b436 105d 0eb8
00000030: 38b2 7938 7b93 183a f954 b338 c610 1738

conv1.lin.weight f4 [16, 1]
-0.42019737 0.29681095 0.0015400036 -0.48538968 0.49531335 0.022013113 -0.015611637 0.024776332
0.46578404 -0.09846292 0.28833058 0.3129472 0.19846128 -0.009112118 -0.1600717 0.11322958
00000000: 1c24 d7be 9bf7 973e f2d9 c93a ff84 f8be
00000010: b699 fd3e d854 b43c f4c7 7fbc bcf7 ca3c
00000020: 3f7b ee3e eda6 c9bd 11a0 933e 9e3a a03e
00000030: 6f39 4b3e fe4a 15bc d6e9 23be e9e4 e73d

bn.weight f4 [16]
1.0195873 0.96624666 0.9709223 0.9451727 0.97932345 0.96411294 0.96606374 0.976927
0.98972857 0.98577297 1.022888 0.98805356 1.0142785 0.98136324 0.9882323 0.9586994
00000000: d681 823f f15b 773f 5d8e 783f d7f6 713f
00000010: f1b4 7a3f 1bd0 763f f44f 773f e317 7a3f
00000020: da5e 7d3f 9e5b 7c3f feed 823f 14f1 7c3f
00000030: e1d3 813f 9f3a 7b3f cbfc 7c3f 536d 753f

bn.bias f4 [16]
0.008318018 -0.019833015 -0.028521746 -0.033480227 -0.033390846 0.0018598009 -0.01852893 -0.05160815
-0.012376699 -0.00827863 0.0355562 -0.013125052 0.006565646 -0.0010967052 -0.0019384631 -0.021953903
00000000: 4c48 083c d978 a2bc 70a6 e9bc 9022 09bd
00000010: d7c4 08bd 90c4 f33a fcc9 97bc 1163 53bd
00000020: a3c7 4abc 17a3 07bc 61a3 113d 750a 57bc
00000030: a124 d73b 52bf 8fba 0714 feba acd8 b3bc

bn.running_mean f4 [16]
0.0033420064 0.15088937 -0.03878653 0.32029814 0.341717 -0.023606023 -0.1326108 0.079137705
-0.24183452 0.15350318 -0.046384532 0.0024017151 -0.074619345 0.08163742 0.027189413 -0.06982371
00000000: 9005 5b3b be82 1a3e a0de 1ebd 1efe a33e
00000010: 88f5 ae3e 6b61 c1bc 20cb 07be f312 a23d
00000020: 78a3 77be f02f 1d3e b5fd 3dbd 1866 1d3b
00000030: 07d2 98bd 8531 a73d 55bc de3c bcff 8ebd

bn.running_var f4 [16]
0.106178984 0.24588968 0.067962974 0.16667956 0.6163374 0.17149271 0.31079823 0.024577955
0.12490318 0.05572084 0.12833014 0.12509035 0.087036476 0.22931477 0.056357436 0.09799544
00000000: 5e74 d93d 81ca 7b3e 2c30 8b3d 0cae 2a3e
00000010: 4ac8 1d3f c99b 2f3e f220 9f3e b557 c93c
00000020: 3dcd ff3d 893b 643d fa68 033e af17 003e
00000030: 2e40 b23d 7ed1 6a3e 0ed7 663d d5b1 c83d

conv2.bias f4 [16]
-7.732683e-06 2.2015058e-05 -3.6997506e-05 3.7452824e-05 -2.1720354e-05 8.6001965e-05 3.7462592e-05 -0.00045861775
-0.00015265134 -2.215712e-06 1.532752e-05 4.7616913e-06 -4.347111e-05 -2.7118222e-07 -5.2864838e-05 3.9382263e-05
00000000: 9fbb 01b7 faac b837 c52d 1bb8 aa16 1d38
00000010: 1b34 b6b7 f45b b438 2721 1d38 a272 f0b9
00000020: 0811 20b9 a4b1 14b6 9993 8037 9ec6 9f36
00000030: c054 36b8 0097 91b4 30bb 5db8 622e 2538

conv2.lin.weight f4 [16, 16]
0.42070988 0.287176 -0.2622871 -0.01931483 -0.24512991 -0.13317773 -0.24000725 0.3015087
0.28166062 -0.07709757 0.013720032 -0.37570244 0.2179649 -0.31619084 -0.21824181 -0.041918002
0.14495727 -0.12980333 -0.053280585 -0.088148296 0.1128778 -0.055401117 -0.26111394 0.093702614
0.06854249 0.17840606 0.12633914 0.3648135 0.20018579 -0.010502865 -0.23719215 0.32553768
-0.3310487 -0.23693371 0.25175926 -0.13701728 -0.06763726 0.11282736 0.31496444 0.24040437
-0.31908277 0.27529716 -0.27011463 0.23733908 -0.13802628 0.42452353 -0.25375992 -0.0169219
0.39382362 0.031361964 -0.028607773 0.3246384 -0.34043232 0.35904145 -0.2515931 -0.067874864
0.42631242 0.19603531 0.1290591 0.18721801 0.035895612 -0.050240863 -0.21176656 0.18919736
0.43424004 0.3946818 0.24468732 0.047119256 -0.1840309 0.215907 0.439637 0.31853124
-0.18198514 0.3374946 0.15180305 -0.008862905 -0.16879511 0.21419133 0.28586438 -0.42213768
-0.4459395 0.13431169 0.21336854 -0.015143921 -0.036740363 0.048414916 0.34884435 0.2007605
0.30662557 0.20871383 0.06338539 -0.25274763 0.17258425 -0.3418111 -0.34364292 -0.24266358
0.023480367 0.2966778 0.052849125 -0.2713331 -0.023581192 -0.04014285 -0.20428559 -0.410325
0.12772885 0.23872003 -0.22226875 -0.34881148 -0.08687738 0.25523466 0.38113582 -0.46782732
0.0248211 -0.27452478 0.05442033 0.039669584 -0.06769391 0.17501932 0.17837873 0.2042718
-0.0017291021 0.07949334 -0.118142694 -0.02943315 0.34201288 0.20310906 -0.37210977 0.07630659
-0.15136345 -0.25611424 -0.0023676027 0.38462517 0.13858339 0.4081274 -0.3121437 -0.06916287
-0.049547024 0.3225621 0.3422544 -0.37154433 -0.3094061 -0.32699582 -0.36525106 -0.42795658
0.3643643 -0.21147263 -0.29374617 -0.2939884 0.041089837 0.11195789 0.053702973 -0.37626123
-0.11685397 0.31962407 0.26385376 0.24657458 0.095541246 -0.3789437 0.17826366 0.46111417
0.15420489 -0.069952086 0.09024381 -0.19594398 0.18106407 -0.0908168 -0.22635494 0.32940713
0.15864171 -0.046763923 0.3447044 -0.084804595 -0.40386307 -0.015800597 -0.19118762 -0.0047502965
-0.27733052 -0.45495754 -0.22053331 -0.14493409 -0.36184728 0.37240693 0.39174187 -0.061276592
0.09863005 -0.22530879 0.23598495 -0.10497114 0.427276 0.3026157 -0.2987187 0.35392132
0.34147334 -0.20258912 -0.04292035 0.0006512886 0.2348853 -0.25288513 -0.34912843 -0.13799702
-0.32582802 -0.2961525 -0.04559791 0.07793198 -0.09998848 0.013354069 0.45187125 0.29702547
-0.43378022 -0.21444207 -0.21966133 0.20452079 0.1689531 0.03185128 0.20956309 0.28841773
0.082136184 -0.35482427 0.120874174 0.38956165 0.23564945 0.34812152 -0.34477592 -0.15574713
-0.32922786 0.2498412 -0.034452286 -0.37977976 -0.2665087 0.35710967 0.07572896 -0.19748534
-0.22383071 -0.15456355 0.29108414 -0.17135163 0.4079753 0.16685109 0.4731452 -0.29250595
0.3389802 0.18887527 0.022679208 -0.07369514 0.41862178 -0.37879825 0.13861167 0.3867511
-0.2665041 -0.19245994 -0.29848674 0.16560844 -0.3200822 -0.08869151 0.1002769 -0.38264024
00000000: 4967 d73e bc08 933e 7f4a 86be 223a 9ebc
00000010: 5603 7bbe be5f 08be 76c4 75be 595f 9a3e
00000020: d235 903e 55e5 9dbd fcc9 603c 125c c0be
00000030: 3132 5f3e c4e3 a1be c87a 5fbe 36b2 2bbd
00000040: ae6f 143e 2aeb 04be be3c 5abd 1887 b4bd
00000050: 7a2c e73d 48ec 62bd bab0 85be 28e7 bf3d
00000060: 0160 8c3d 14b0 363e 0c5f 013e d6c8 ba3e
00000070: 81fd 4c3e 3514 2cbc 80e2 72be e0ac a63e
00000080: 377f a9be c09e 72be 97e6 803e 424e 0cbe
00000090: 6785 8abd 0812 e73d 0543 a13e 902c 763e
000000a0: d15e a3be c0f3 8c3e 774c 8abe 0409 733e
000000b0: c356 0dbe 265b d93e d2ec 81be cc9f 8abc
000000c0: 40a3 c93e 6775 003d d95a eabc 0137 a63e
000000d0: 254d aebe 48d4 b73e d0d0 80be fa01 8bbd
000000e0: 9f45 da3e 7bbd 483e 1228 043e 14b6 3f3e
000000f0: 4707 133d 5dc9 4dbd 55d9 58be f4bc 413e
00000100: b654 de3e bc13 ca3e 508f 7a3e 1f00 413d
00000110: 9972 3cbe b916 5d3e 1a18 e13e 8716 a33e
00000120: 505a 3abe 18cc ac3e 4272 1b3e b835 11bc
00000130: a0d8 2cbe f954 5b3e d15c 923e 6e22 d8be
00000140: 2f52 e4be 0189 093e 487d 5a3e 351e 78bc
00000150: 107d 16bd b84e 463d ba9b b23e 2994 4d3e
00000160: 07fe 9c3e 14b9 553e 33d0 813d 2368 81be
00000170: edb9 303e dd01 afbe f7f1 afbe cd7c 78be
00000180: e659 c03c 27e6 973e 5378 583d 2cec 8abe
00000190: 582d c1bc d46c 24bd 3e30 51be 1e16 d2be
000001a0: 5acb 023e 0673 743e 6b9a 63be 6b97 b2be
000001b0: c5ec b1bd 1eae 823e 3c24 c33e 1087 efbe
000001c0: 9f55 cb3c 838e 8cbe dae7 5e3d 937c 223d
000001d0: 1ba3 8abd 4438 333e eaa8 363e a02c 513e
000001e0: 0aa3 e2ba 67cd a23d ccf4 f1bd ca1d f1bc
000001f0: 501c af3e d2fb 4f3e 2c85 bebe a146 9c3d
00000200: 05ff 1abe 6821 83be c829 1bbb 97ed c43e
00000210: cee8 0d3e 13f6 d03e 4dd1 9fbe 43a5 8dbd
00000220: d2f1 4abd dc26 a53e f83b af3e 0f3b bebe
00000230: 7a6a 9ebe ff6b a7be 3002 bbbe 201d dbbe
00000240: f58d ba3e 488c 58be e665 96be a685 96be
00000250: d14d 283d 2e4a e53d a6f7 5b3d 50a5 c0be
00000260: 2251 efbd c4a5 a33e d717 873e 0c7e 7c3e
00000270: 21ab c33d e904 c2be c08a 363e 2817 ec3e
00000280: e3e7 1d3e 0a43 8fbd bfd1 b83d 8aa5 48be
00000290: dc68 393e 29fe b9bd 97c9 67be 0da8 a83e
000002a0: f972 223e 878b 3fbd 187d b03e 08ae adbd
000002b0: 24c7 cebe 4170 81bc b0c6 43be 60a8 9bbb
000002c0: 44fe 8dbe 32f0 e8be 7cd3 61be 9a69 14be
000002d0: 0c44 b9be 1fac be3e 6492 c83e 2afd 7abd
000002e0: 8dfe c93d 59b7 66be 0aa6 713e 1cfb d6bd
000002f0: ebc3 da3e 72f0 9a3e a8f1 98be 2d35 b53e
00000300: 98d5 ae3e 8673 4fbe 40cd 2fbd 3dbb 2a3a
00000310: c685 703e 297a 81be f6c0 b2be 174f 0dbe
00000320: eed2 a6be 4da1 97be e0c4 3abd cd9a 9f3d
00000330: c3c6 ccbd 06cb 5a3c ab5b e73e b913 983e
00000340: 7118 debe b496 5bbe e6ee 60be e66d 513e
00000350: 0b02 2d3e 7d76 023d b597 563e 7dab 933e
00000360: 0437 a83d 87ab b5be e18c f73d a074 c73e
00000370: 174e 713e fc3c b23e 7886 b0be 2d7c 1fbe
00000380: 8e90 a8be 5fd6 7f3e d71d 0dbd 7e72 c2be
00000390: d473 88be 14d7 b63e c917 9b3d 9939 4abe
000003a0: e133 65be e845 1ebe fb08 953e cd76 2fbe
000003b0: 23e2 d03e 03db 2a3e 1640 f23e 57c3 95be
000003c0: d08e ad3e 8568 413e bfc9 b93c 7aed 96bd
000003d0: 9855 d63e d8f1 c1be 38f0 0d3e 3d04 c63e
000003e0: 3a73 88be 3814 45be 41d3 98be 4295 293e
000003f0: d0e1 a3be e5a3 b5bd fa5d cd3d 6ce9 c3be

conv3.lin.weight f4 [1, 16]
-0.034355763 -0.3312864 -0.4613252 -0.3693634 -0.16445376 0.5002787 0.46632174 0.30227935
-0.42477635 0.016598167 0.14492983 -0.040903173 -0.2309428 0.5278263 -0.13761175 -0.44648096
00000000: a1b8 0cbd 5f9e a9be d132 ecbe 331d bdbe
00000010: 9166 28be 4412 003f b9c1 ee3e 5cc4 9a3e
00000020: 497c d9be e1f8 873c 7c68 143e 168a 27bd
00000030: 457c 6cbe a01f 073f 18ea 0cbe 2799 e4be
